results/Parking_01/CarSimulation/CarSimulation-5000011.onnx (onnx, 75034 bytes, 9 tensors)

50 f4 [9]
0.73635405 0.66685134 2.2014656 1.3213494 1.1830798 0.6261955 0.7003205 3.712955
3.3371975
00000000: b381 3c3f c5b6 2a3f d0e4 0c40 fa21 a93f
00000010: 296f 973f 594e 203f 3448 333f 0ea1 6d40
00000020: a594 5540

action_model._continuous_distribution.log_sigma f4 [1, 3]
-1.107914 -0.81078255 -1.1144673
00000000: 20d0 8dbf 728f 4fbf dda6 8ebf

action_model._continuous_distribution.mu.bias f4 [3]
0.09412357 0.12274639 -0.2144576
00000000: dcc3 c03d 7662 fb3d c69a 5bbe

action_model._continuous_distribution.mu.weight f4 [3, 128]
0.038101133 -0.17797425 0.08620305 -0.23469278 0.22127306 0.027127484 -0.03496489 -0.18138184
0.07063351 0.16149475 -0.16427967 0.16043817 0.057907633 0.004742494 -0.14611742 -0.13325815
0.20078455 0.114600874 -0.015808005 0.08054617 -0.04974268 -0.21501382 -0.10125591 0.20133612
-0.045573533 0.17576079 -0.049926594 0.053340647 -0.010946484 0.080849335 0.009584037 -0.23973452
-0.018150656 -0.22161306 0.013524238 -0.011129689 -0.094997026 0.11971681 0.08703978 0.055931643
0.118477955 -0.25028574 0.21903008 0.15141435 -0.0070831575 0.07744129 0.07974522 -0.0145664485
-0.060269658 -0.08524188 0.034989353 0.19726802 0.20532462 0.06636987 -0.14283977 -0.1791696
-0.0025666077 0.030980371 -0.19097027 0.1859508 -0.0044707265 -0.009390861 -0.06930112 0.035323966
-0.05638614 0.029604409 0.058661852 0.22784275 0.03857215 -0.20198724 -0.08474458 -0.06694603
-0.07040705 -0.21800812 0.31702062 -0.1541016 -0.077743486 -0.15711616 0.06442248 0.24912459
-0.06116677 -0.08302527 -0.20936586 0.015798273 -0.09852604 -0.31197888 0.06359588 0.041541263
-0.055108972 -0.33024213 0.0038426816 0.20770259 0.019118164 -0.17053744 0.090055235 -0.04363416
0.10364398 0.010161244 -0.0122446325 -0.115391694 -0.10739921 -0.29238585 -0.019665105 0.026931046
0.21718226 -0.1951593 -0.24117865 0.04748722 -0.051119417 0.064447656 0.0040256185 0.061382342
-0.022271559 0.05834588 -0.05756337 -0.16915295 0.2488847 0.040536396 -0.12045429 -0.14526758
-0.18039367 0.16658625 0.09110474 -0.02639912 -0.14442225 0.00587634 -0.104099825 -0.35797966
-0.11056792 -0.25251633 0.024435107 -0.09234655 -0.1515793 0.041338503 -0.29908016 0.012451571
0.047313295 -0.09935934 -0.2645533 -0.05796596 0.09803942 0.04340975 -0.004178876 -0.30146274
0.07792871 0.15728247 -0.1750908 0.14090154 -0.043003634 0.028538723 -0.4015555 -0.31202278
0.32320103 0.12384177 -0.008377647 -0.009727867 0.18537638 -0.016434653 -0.010579112 -0.10596412
-0.0137908235 0.0009824574 0.014423264 -0.038964354 -0.3015908 0.03679284 -0.19274399 0.0902463
-0.027892921 -0.17359014 0.12565653 0.055465944 -0.06592678 -0.40747672 0.06992137 -0.011749039
0.05104368 0.18343624 -0.3980749 0.064910695 -0.03857515 0.3108239 0.016218951 0.21676627
-0.0043266965 0.22650649 -0.46058342 -0.1319068 -0.003623616 -0.037420858 0.18622108 0.36855984
0.11223064 -0.21879554 0.061567873 -0.110744216 -0.005357525 -0.0008071459 -0.027291482 -0.30412287
-0.16449617 -0.032152545 0.025522418 -0.033066157 -0.21029611 -0.04495968 -0.04589208 -0.08380764
-0.11961243 0.40653563 0.251508 -0.11649728 0.037252903 0.14577813 0.106669195 0.13545358
0.047605503 0.076942325 -0.20464028 -0.021248665 -0.28114292 0.08871293 0.08473306 -0.57088226
-0.06237994 0.0085048955 -0.103541434 -0.044183664 0.21153504 0.026249006 0.19659132 -0.05736056
0.019082615 0.0027116034 0.004555249 -0.18741462 0.1470419 0.061240174 -0.08232051 0.24993668
-0.26671606 0.04460185 0.35131428 -0.15272847 -0.118184805 -0.2664394 -0.13098946 -0.024732951
-0.038561296 -0.055813137 -0.095464066 0.36347392 -0.23418859 -0.22703797 -0.17168452 0.102863334
00000000: ef0f 1c3d e23e 36be 3a8b b03d 4e53 70be
00000010: 6895 623e 753a de3c 5837 0fbd 29bc 39be
00000020: 4da8 903d e15e 253e ee38 28be e749 243e
00000030: 8e30 6d3d ec66 9b3b ce9f 15be d374 08be
00000040: 779a 4d3e ddb3 ea3d ca7f 81bc 64f5 a43d
00000050: fbbe 4bbd 952c 5cbe 425f cfbd 0e2b 4e3e
00000060: 50ab 3abd a3fa 333e d47f 4cbd b97b 5a3d
00000070: e258 33bc 5694 a53d 5d06 1d3c f77c 75be
00000080: afb0 94bc 89ee 62be c494 5d3c 4d59 36bc
00000090: cd8d c2bd 162e f53d ea41 b23d 9418 653d
000000a0: 92a4 f23d 7425 80be 6c49 603e 5d0c 1b3e
000000b0: d519 e8bb 8a99 9e3d 7651 a33d 1da8 6ebc
000000c0: 51dd 76bd 4b93 aebd ff50 0f3d a100 4a3e
000000d0: 9e40 523e edec 873d 9744 12be 3c78 37be
000000e0: 8834 28bb 8cca fd3c b68d 43be e369 3e3e
000000f0: 2c7f 92bb 20dc 19bc bfed 8dbd ddaf 103d
00000100: 27f5 66bd f284 f23c 6947 703d 9c4f 693e
00000110: d5fd 1d3d bed5 4ebe 918e adbd 001b 89bd
00000120: 9231 90bd 853d 5fbe 8750 a23e cfcc 1dbe
00000130: fa37 9fbd 0fe3 20be efef 833d 841a 7f3e
00000140: 028a 7abd 2709 aabd 0164 56be 616b 813c
00000150: 05c8 c9bd b2bb 9fbe 8f3e 823d 2c27 2a3d
00000160: f2b9 61bd 7f15 a9be 80d5 7b3b fdaf 543e
00000170: b29d 9c3c 5ea1 2ebe e16e b83d bcb9 32bd
00000180: 4c43 d43d 597b 263c b69d 48bc 7b52 ecbd
00000190: 1ef4 dbbd 99b3 95be b718 a1bc 7f9e dc3c
000001a0: 0765 5e3e d7d7 47be 89f7 76be f681 423d
000001b0: 9862 51bd 22fd 833d 56e9 833b 0d6c 7b3d
000001c0: d872 b6bc 17fc 6e3d 91c7 6bbd 6e36 2dbe
000001d0: a1db 7e3e 7e09 263d bdb0 f6bd 06c1 14be
000001e0: 1eb9 38be 9695 2a3e 1f95 ba3d f842 d8bc
000001f0: 6de3 13be 508e c03b 4a32 d5bd 1c49 b7be
00000200: 6f71 e2bd d249 81be 222c c83c 3020 bdbd
00000210: 9b37 1bbe 9052 293d 0921 99be ad01 4c3c
00000220: 96cb 413d e97c cbbd 8873 87be b76d 6dbd
00000230: e4c8 c83d 6cce 313d f4ee 88bb 5359 9abe
00000240: 1699 9f3d a80e 213e 014b 33be 7e48 103e
00000250: 9424 30bd 0aca e93c af98 cdbe 73c1 9fbe
00000260: 9b7a a53e c1a0 fd3d 6642 09bc a261 1fbc
00000270: 4ed3 3d3e f7a1 86bc 0354 2dbc b703 d9bd
00000280: e8f2 61bc cdc5 803a 8e4f 6c3c 1699 1fbd
00000290: 1c6a 9abe 17b4 163d ae5e 45be 0dd3 b83d
000002a0: b27f e4bc 9dc1 31be 1bac 003e 4230 633d
000002b0: 9f04 87bd caa0 d0be ef32 8f3d 0b7f 40bc
000002c0: 2e13 513d b6d6 3b3e 79d0 cbbe e6ef 843d
000002d0: fa00 1ebd 4f24 9f3e 9bdd 843c faf7 5d3e
000002e0: f6c6 8dbb 51f1 673e 97d1 ebbe 9412 07be
000002f0: 307a 6dbb 9d46 19bd bdb0 3e3e e0b3 bc3e
00000300: 2ed9 e53d f00b 60be 982e 7c3d ddcd e2bd
00000310: 2d8e afbb a596 53ba 6392 dfbc feb5 9bbe
00000320: af71 28be 63b2 03bd 6414 d13c 6170 07bd
00000330: dd57 57be a427 38bd 55f9 3bbd 57a3 abbd
00000340: 5df7 f4bd 7025 d03e a8c5 803e 2096 eebd
00000350: 8096 183d dd46 153e 6175 da3d 58b4 0a3e
00000360: fdfd 423d f093 9d3d 398d 51be ae11 aebc
00000370: f7f1 8fbe 20af b53d 8788 ad3d 5725 12bf
00000380: 1c82 7fbd 1e58 0b3c 880d d4bd eef9 34bd
00000390: a49c 583e 2808 d73c 3c4f 493e e8f2 6abd
000003a0: 2553 9c3c 28b5 313b 3344 953b 9ee9 3fbe
000003b0: 2792 163e fad6 7a3d a897 a8bd 67ef 7f3e
000003c0: 028f 88be 6eb0 363d 77df b33e da64 1cbe
000003d0: e00a f2bd bf6a 88be 1a22 06be c29c cabc
000003e0: 73f2 1dbd 519c 64bd aa82 c3bd 4119 ba3e
000003f0: 22cf 6fbe a47c 68be 11ce 2fbe 03aa d23d

network_body._body_endoder.seq_layers.0.bias f4 [128]
0.120758876 0.000986251 -0.023997935 0.08837071 -0.102272734 0.009290389 -0.12199215 0.109943844
-0.10117513 0.11181557 -0.100134544 -0.32326838 0.0807244 -0.012269418 -0.017727768 -0.107130215
-0.39592984 -0.18974407 -0.16694576 0.0688232 0.017038276 -0.18109187 -0.087357305 -0.0032688815
-0.16520688 -0.07713059 -0.18734409 0.15195349 -0.06436978 -0.0903351 0.1638544 -0.30358
0.040009007 -0.27379784 -0.089765094 -0.087222315 -0.12598293 0.043072723 -0.10847992 -0.00366445
-0.048787467 -0.08662543 -0.10140218 -0.0057750656 -0.13011429 -0.25800583 -0.011277164 -0.1547806
-0.19331464 -0.15254088 -0.04888976 -0.015746916 0.1809692 0.00483983 0.07927816 -0.035326015
-0.3109315 -0.01550381 -0.21989726 -0.19651021 -0.01953681 0.11928111 0.010403045 0.11996123
-0.17106085 -0.15407093 -0.07987566 -0.18238775 0.10655974 -0.16044933 0.10490118 0.03135645
-0.121700116 0.07150843 -0.17097905 0.09942808 -0.16905953 -0.055348534 -0.041914653 -0.17277992
0.07506169 0.012445806 0.21950594 -0.17961247 0.010547332 -0.00038546612 -0.25964797 -0.20100214
0.046149384 0.14445296 0.169801 -0.057972398 -0.18782191 -0.13981345 -0.104682244 0.13124678
0.07117132 0.057777658 0.08346688 -0.15773343 -0.08085341 -0.08766141 -0.035556987 0.07651393
-0.011220187 -0.037179407 0.16131674 -0.038027544 0.061684825 0.019613689 -0.08150529 -0.06649746
-0.07270537 -0.059324097 0.10362611 -0.13923915 -0.06755558 0.10387031 0.06258665 0.10985087
-0.17359337 -0.006230188 0.03619661 -0.15015699 -0.088693365 0.07229775 -0.1281177 0.13579036
00000000: 6e50 f73d 1845 813a 5197 c4bc b4fb b43d
00000010: 5e74 d1bd b736 183c 05d7 f9bd 3d2a e13d
00000020: e834 cfbd 90ff e43d 5713 cdbd 6f83 a5be
00000030: d652 a53d ab05 49bc d339 91bc 1667 dbbd
00000040: 51b7 cabe 454c 42be d4f3 2abe 2ef3 8c3d
00000050: db93 8b3c 2670 39be 63e8 b2bd bb3a 56bb
00000060: fe2b 29be a5f6 9dbd 21d7 3fbe b299 1b3e
00000070: 4ed4 83bd 9c01 b9bd 73c9 273e d66e 9bbe
00000080: 7ce0 233d 3b2f 8cbe c3d6 b7bd 9da1 b2bd
00000090: ab01 01be 066d 303d b82a debd 4527 70bb
000000a0: 5ed5 47bd ac68 b1bd f2ab cfbd c33c bdbb
000000b0: ae3c 05be 5719 84be dbc3 38bc ce7e 1ebe
000000c0: 46f4 45be ad33 1cbe a140 48bd adff 80bc
000000d0: fd4f 393e 7097 9e3b 975c a23d 03b2 10bd
000000e0: 6a32 9fbe b103 7ebc bf2c 61be f939 49be
000000f0: a90b a0bc a849 f43d 8971 2a3c 3cae f53d
00000100: 932a 2fbe c5c4 1dbe da95 a3bd dbc3 3abe
00000110: fe3b da3d d44c 24be 6ed6 d63d 9f6f 003d
00000120: e93d f9bd 0373 923d 2215 2fbe f3a0 cb3d
00000130: f11d 2dbe 25b5 62bd b3ae 2bbd 38ed 30be
00000140: f1b9 993d 7ee9 4b3c 2ac6 603e 55ec 37be
00000150: b8ce 2c3c 6318 cab9 94f0 84be 81d3 4dbe
00000160: 2307 3d3d 7aeb 133e 50e0 2d3e 7774 6dbd
00000170: 6354 40be 422b 0fbe a563 d6bd 8e65 063e
00000180: 45c2 913d 44a8 6c3d aff0 aa3d df84 21be
00000190: 7996 a5bd d387 b3bd 34a4 11bd 56b3 9c3d
000001a0: e0d4 37bc 6f49 18bd 3730 253e c5c2 1bbd
000001b0: 3aa9 7c3d e3ac a03c 3fec a6bd d22f 88bd
000001c0: 8ee6 94bd d3fd 72bd ed39 d43d b594 0ebe
000001d0: 945a 8abd f5b9 d43d 6e2d 803d 7ef9 e03d
000001e0: 76c2 31be 9b26 ccbb e642 143d c1c2 19be
000001f0: dea4 b5bd d810 943d 4931 03be a10c 0b3e

network_body._body_endoder.seq_layers.0.weight f4 [128, 9]
-0.17010169 -0.10657089 0.08983939 0.08421733 -0.27915886 0.1876595 0.056220885 -0.49050927
0.65571266 -0.23397699 0.15755966 0.0593108 -0.36651084 0.19313526 0.22934744 -0.4601815
-0.07959578 -0.7401851 0.3616798 0.039266545 -0.0068977666 0.3847799 0.042354304 -0.21059978
0.693695 -0.6363356 -0.44860783 -0.20254615 0.13979919 0.11198022 0.10182726 0.17254668
0.2736172 0.04478334 0.059279338 -0.28774077 0.48232725 -0.048168037 0.07343779 -0.28861058
-0.2567549 -0.016411647 -0.185429 0.012729337 0.12521757 -0.25187474 0.7883259 -0.13548069
-0.5419009 -0.17951001 -0.870899 0.13467635 0.1457631 -0.25137413 -0.7071754 0.23301174
0.054170337 -0.5114517 0.0708605 -0.37349674 -0.93940496 0.5653682 -0.27195022 -0.21696527
0.35157964 0.20146453 0.092637464 0.30110574 -0.34437028 0.21152724 -0.76559925 0.7532246
0.06722643 1.1125835 -0.5152532 -0.46508542 -0.31186885 0.3893048 -0.1476394 0.45034465
-0.15797715 -0.077514 0.74533397 -0.1432286 0.050727766 -0.3866809 -0.31389672 0.080364436
-0.091980375 0.009952394 0.045342185 -0.5749417 -0.28705877 -0.2334894 0.29420885 -0.2714069
1.1465896 0.116332665 -0.09423911 -0.45834938 0.45133153 -0.50945145 0.5582454 0.092780784
-0.20253474 -0.072129644 0.34267536 -0.25192568 -0.19134526 0.23550078 -0.04488078 -0.14897953
-0.512572 0.025184158 0.02582568 0.51680624 0.4080218 -0.034816865 0.16956966 0.05692681
-0.00038927098 -0.024851609 -0.014975975 -0.06255903 -0.045229606 0.0940541 -0.042393334 0.8273785
0.22276208 0.56408197 0.15750965 -0.675348 -0.14620677 0.18425474 -0.23001724 -0.66081655
-0.20460398 0.25929314 -0.37039298 0.47995293 -0.13889852 -0.3764646 0.007237092 0.009191699
0.23092096 0.111774206 0.079418495 -0.06004053 0.0069078878 0.26625565 -0.23746897 0.21804625
-0.110552065 -0.6046225 -0.6996114 0.14838476 -0.313345 0.18123935 0.603646 -0.21230826
-0.60117805 0.23112519 -0.4870389 0.3053853 0.9079674 -0.035814367 0.16284594 0.57255906
-0.30362508 -0.41015163 -0.2742756 -0.60466003 1.0909902 -0.1933864 0.3339582 0.3370081
-0.0074347686 -0.122224666 0.585464 -0.7314316 -0.19953811 -0.23151381 0.036963407 0.32904524
-0.51284105 0.102216676 0.101387896 -0.11739369 -0.034765013 0.7427303 0.12012931 -0.47071785
-0.7291026 -0.10022016 0.06137069 -0.12112447 -0.22907098 -0.1217617 0.31852973 0.6469712
-0.07281567 -0.007515871 -0.07189462 -0.21750309 0.008855526 0.19650082 -0.33918047 0.22285903
0.615214 0.057538897 -0.15110596 -0.2332158 -0.35364696 -0.660933 -0.36879945 0.09874408
0.8194074 0.070157215 0.08861832 0.39943382 0.21445388 -0.029443312 -0.4612636 -0.4547895
-0.60285646 0.015356824 0.21051194 -0.40952706 0.2728696 -0.8338028 -0.18194176 -0.59317
-0.67035997 -0.16121946 0.26003227 0.9283106 -0.062792666 -0.96662676 -0.10885219 -0.033981174
-0.18947506 -0.3155631 0.19336674 -0.055471152 -0.49620333 0.12644127 -0.86869997 -0.23335405
0.064127356 -0.11088916 -0.46619537 0.7641278 0.18243374 -0.18658261 0.113664486 -0.37780064
00000000: 232f 2ebe d741 dabd b7fd b73d 237a ac3d
00000010: e9ed 8ebe d029 403e df47 663d 0824 fbbe
00000020: c9dc 273f aa97 6fbe 5257 213e e2ef 723d
00000030: 4fa7 bbbe 40c5 453e 0eda 6a3e e99c ebbe
00000040: 1d03 a3bd c57c 3dbf 182e b93e f5d5 203d
00000050: a906 e2bb df01 c53e b57b 2d3d 78a7 57be
00000060: ff95 313f e4e6 22bf edaf e5be 4268 4fbe
00000070: 8527 0f3e e355 e53d cf8a d03d 14b0 303e
00000080: 8e17 8c3e bc6e 373d e4ce 723d c252 93be
00000090: 99f3 f63e d94b 45bd 8d66 963d c4c4 93be
000000a0: 6175 83be b871 86bc 1ae1 3dbe b68e 503c
000000b0: 0939 003e baf5 80be bacf 493f 73bb 0abe
000000c0: 04ba 0abf 79d1 37be 3df3 5ebf 99e8 093e
000000d0: ec42 153e 1cb4 80be 7209 35bf a19a 6e3e
000000e0: b7e1 5d3d 80ee 02bf 4f1f 913d f73a bfbe
000000f0: d87c 70bf f8bb 103f 0f3d 8bbe 252c 5ebe
00000100: 3f02 b43e b84c 4e3e b6b8 bd3d 882a 9a3e
00000110: 4d51 b0be 999a 583e 50fe 43bf 54d3 403f
00000120: 03ae 893d 2369 8e3f a2e7 03bf ad1f eebe
00000130: 46ad 9fbe f552 c73e c82e 17be 9393 e63e
00000140: c3c4 21be a9bf 9ebd 35ce 3e3f 85aa 12be
00000150: ebc7 4f3d 0afb c5be 12b7 a0be 1c96 a43d
00000160: 3560 bcbd 5e0f 233c bab8 393d 612f 13bf
00000170: 5ef9 92be d817 6fbe 8ba2 963e d8f5 8abe
00000180: 73c3 923f d23f ee3d 6f00 c1bd c5ac eabe
00000190: ed14 e73e 696b 02bf 2ce9 0e3f da03 be3d
000001a0: 4465 4fbe b5b8 93bd 2573 af3e 67fc 80be
000001b0: 03f0 43be 1e27 713e e9d4 37bd 178e 18be
000001c0: eb37 03bf 024f ce3c 6090 d33c 6a4d 043f
000001d0: 3ce8 d03e 219c 0ebd aba3 2d3e 162c 693d
000001e0: 1117 ccb9 9a95 cbbc cb5d 75bc f31e 80bd
000001f0: ae42 39bd 709f c03d a2a4 2dbd 14cf 533f
00000200: be1b 643e ad67 103f 364a 213e 9be3 2cbf
00000210: 3ab7 15be 46ad 3c3e a489 6bbe 462b 29bf
00000220: b583 51be 12c2 843e 26a4 bdbe 64bc f53e
00000230: 6a3b 0ebe f8bf c0be 2125 ed3b c898 163c
00000240: 8b76 6c3e e0e9 e43d 2aa6 a23d 0fed 75bd
00000250: 905b e23b a952 883e 112b 73be 8447 5f3e
00000260: 1f69 e2bd 8ac8 1abf bc19 33bf 2df2 173e
00000270: c16e a0be cf96 393e 8b88 1a3f 5667 59be
00000280: cee6 19bf 15ac 6c3e 2a5d f9be 765b 9c3e
00000290: 8d70 683f 16b2 12bd 16c1 263e 3b93 123f
000002a0: bf74 9bbe 65ff d1be da6d 8cbe 00cb 1abf
000002b0: 91a5 8b3f 1607 46be 92fc aa3e 538c ac3e
000002c0: 5c9f f3bb ed50 fabd f8e0 153f 1a3f 3bbf
000002d0: b853 4cbe f511 6dbe f166 173d 9e78 a83e
000002e0: 8d49 03bf fa56 d13d 75a4 cf3d 1a6c f0bd
000002f0: c265 0ebd 9323 3e3f 5b06 f63d ee01 f1be
00000300: 78a6 3abf 3a40 cdbd d55f 7b3d 1b10 f8bd
00000310: 9591 6abe 335e f9bd 5416 a33e e89f 253f
00000320: 6220 95bd b247 f6bb 7d3d 93bd 21b9 5ebe
00000330: c516 113c 8337 493e 10a9 adbe 2835 643e
00000340: aa7e 1d3f e8ad 6b3d 85bb 1abe 1fd0 6ebe
00000350: 3711 b5be e832 29bf 48d3 bcbe 563a ca3d
00000360: afc4 513f 96ae 8f3d 867d b53d 9782 cc3e
00000370: cc99 5b3e 1a33 f1bc be2a ecbe 2bda e8be
00000380: cd54 1abf 309b 7b3c 7190 573e 88ad d1be
00000390: 90b5 8b3e 1a74 55bf f14e 3abe fdd9 17bf
000003a0: b69c 2bbf b716 25be f322 853e c3a5 6d3f
000003b0: 7199 80bd da74 77bf e6ed debd d82f 0bbd
000003c0: c005 42be 7d91 a1be ee01 463e b835 63bd
000003d0: 5d0e febe d279 013e 1f63 5ebf 5df4 6ebe
000003e0: 3455 833d db19 e3bd 29b1 eebe e19d 433f
000003f0: e9cf 3a3e 830f 3fbe edc8 e83d 166f c1be

network_body._body_endoder.seq_layers.2.bias f4 [128]
-0.38250363 -0.14928189 -0.18877855 -0.26637995 -0.26374587 -0.13225825 -0.13643427 -0.17487422
-0.2367237 -0.12256603 -0.07497896 0.010602191 -0.10514308 -0.14474803 -0.11917916 -0.22550371
-0.06028998 -0.24364564 -0.31479385 -0.16567317 -0.19027707 -0.23870008 -0.1729856 -0.12312593
-0.1163787 -0.12699196 -0.21584786 -0.33938405 -0.009174719 -0.124532945 -0.46629095 -0.055378284
-0.16663043 -0.10600959 -0.12557925 -0.17242573 -0.3699339 -0.12150204 -0.1536327 0.007681542
-0.24337988 -0.1835074 -0.033849105 -0.29691216 -0.29153612 -0.15024972 -0.18741699 -0.18788937
-0.17330162 -0.062053002 -0.2169962 -0.17888024 -0.073271364 -0.19556959 -0.23312578 -0.08506772
-0.5993253 -0.0047018304 -0.1870655 -0.29703104 -0.053606797 -0.28666213 -0.18156768 -0.087709755
-0.250964 -0.18998002 -0.13596617 -0.12322789 -0.31802765 -0.10317839 -0.17111976 -0.18895628
-0.26308095 -0.18286316 -0.0082835 -0.24097478 -0.031318355 -0.09668318 -0.21637546 -0.1742553
-0.34658492 -0.07590262 -0.063536145 -0.20233408 -0.3227535 -0.08688149 -0.2766151 -0.13465326
-0.2668263 0.00675434 -0.18034127 -0.101592995 -0.19534267 -0.1604512 -0.12959883 -0.24005423
-0.28789517 -0.22547159 -0.18689479 -0.17372248 -0.21071325 -0.031096254 -0.09056504 -0.31184357
-0.1494475 -0.16334818 -0.19148198 -0.38545027 -0.1510605 -0.021882633 -0.37873986 -0.13373905
-0.24024577 -0.024627283 -0.11229444 -0.19549745 -0.24592958 -0.15100056 -0.23798065 -0.33746117
-0.16857417 -0.11095937 -0.30295256 0.020952208 -0.30033362 -0.08738559 -0.18555027 -0.19568995
00000000: 84d7 c3be 5add 18be 2a4f 41be f462 88be
00000010: b309 87be b56e 07be 6db5 0bbe 3a12 33be
00000020: b367 72be e603 fbbd 928e 99bd d0b4 2d3c
00000030: 4155 d7bd d438 14be 3414 f4bd 72ea 66be
00000040: a0f2 76bd 3e7e 79be a92c a1be 3aa6 29be
00000050: fed7 42be cb6d 74be 2323 31be 7329 fcbd
00000060: f557 eebd 2e0a 02be 3907 5dbe bfc3 adbe
00000070: 9051 16bc 210b ffbd b0bd eebe 57d4 62bd
00000080: 2ba1 2abe 8e1b d9bd d997 00be 5f90 30be
00000090: fa67 bdbe 10d6 f8bd e451 1dbe 72b5 fb3b
000000a0: 9338 79be 5de9 3bbe 5ca5 0abd df04 98be
000000b0: 3944 95be 10db 19be 3dea 3fbe 1266 40be
000000c0: fb75 31be 4a2b 7ebd 4034 5ebe 622c 37be
000000d0: 4c0f 96bd 6543 48be 86b8 6ebe fc37 aebd
000000e0: 626d 19bf d011 9abb 198e 3fbe 7414 98be
000000f0: cd92 5bbd 61c5 92be e1ec 39be 2ca1 b3bd
00000100: 5a7e 80be 1f8a 42be b73a 0bbe e75e fcbd
00000110: 85d4 a2be 314f d3bd 053a 2fbe c17d 41be
00000120: 8cb2 86be 7b40 3bbe 84b7 07bc 18c2 76be
00000130: ad47 00bd d501 c6bd 8791 5dbe fb6f 32be
00000140: 9473 b1be d572 9bbd 3d1f 82bd aa30 4fbe
00000150: f23f a5be ecee b1bd 7fa0 8dbe 8be2 09be
00000160: 759d 88be 8353 dd3b 62ab 38be fd0f d0bd
00000170: e907 48be 524d 24be 8eb5 04be c7d0 75be
00000180: ff66 93be 06e2 66be 5961 3fbe 4ee4 31be
00000190: 37c5 57be 92bd febc 2a7a b9bd f6a9 9fbe
000001a0: c408 19be bf44 27be da13 44be bd59 c5be
000001b0: 9baf 1abe 3543 b3bc 31ea c1be e4f2 08be
000001c0: fd02 76be 28bf c9bc a1fa e5bd 7c30 48be
000001d0: f7d4 7bbe e49f 1abe 33b1 73be b6c7 acbe
000001e0: b59e 2cbe ab3e e3bd 991c 9bbe f7a3 ab3c
000001f0: 54c5 99be 37f7 b2bd e400 3ebe f262 48be

network_body._body_endoder.seq_layers.2.weight f4 [128, 128]
-0.22793667 -0.2252968 0.16299877 -0.04203144 -0.13810037 -0.33435526 -0.018509008 -0.21921031
-0.10187628 -0.3856554 -0.14607315 0.026741412 -0.14170747 0.124435306 -0.19991712 0.2064833
0.28445104 -0.21155356 -0.16850065 -0.08116395 0.11838969 -0.28219503 0.08379905 -0.056056675
-0.08661123 -0.109147646 -0.3405636 -0.3854364 -0.008722693 0.09972011 -0.18128586 -0.13757654
0.17970473 0.27475354 -0.04544312 -0.06863891 -0.053209748 0.06080964 -0.20908199 0.028725635
0.1117849 -0.28480288 0.00970135 0.2026669 0.0955602 -0.17388542 -0.45865923 -0.13579415
0.043914385 0.27864566 -0.0809195 -0.051524706 0.0034908594 -0.007229346 -0.3484147 -0.22598308
-0.080523565 -0.057751164 -0.12119213 0.27276272 -0.070090674 -0.35185823 -0.029870274 -0.4396991
0.12824291 -0.046170503 -0.15920281 -0.09482041 -0.06450204 0.1942806 -0.23411892 0.095695645
0.011000809 -0.2175546 -0.24031618 0.13445109 0.06817306 -0.09497725 -0.31864938 -0.101851285
0.13943286 0.12189108 0.02797273 -0.2551369 -0.40546224 -0.16773984 -0.19472656 -0.18101902
-0.5414154 -0.3569471 -0.023964878 0.1455413 -0.13678207 0.10276804 0.114566036 -0.111438304
-0.010845761 -0.3622207 -0.11828963 -0.07612191 0.050804574 -0.10156823 -0.05411834 -0.25747678
-0.030897133 0.001335306 -0.26075408 -0.008935707 0.054647516 -0.1574314 0.07286472 0.0042733336
0.14758761 -0.16419613 -0.13948998 -0.076733656 -0.032516945 -0.15491238 -0.49543998 -0.2295009
-0.14341798 0.023819866 -0.080290034 -0.3457147 -0.083949305 -0.4612723 -0.075939864 -0.12267832
-0.17616825 0.13062559 -0.016899671 0.09728221 -0.28416932 -0.17635728 0.066335544 -0.10313067
-0.09425325 -0.37860385 0.22215074 -0.14236495 -0.21367203 -0.11043374 -0.46906164 -0.046171848
-0.251248 0.026883911 -0.1823629 0.08290091 -0.12142141 -0.094681926 -0.2161611 -0.4663847
-0.5862339 -0.3617916 -0.19131467 -0.039639425 0.26280764 0.16357481 -0.09760812 -0.22237377
-0.634484 0.1181515 0.10190957 -0.13162774 0.006948921 -0.3810944 -0.2578846 -0.008428716
0.06662458 0.26528674 0.01299629 -0.26222143 0.03276225 -0.06334314 -0.031135693 -0.07255231
-0.15532535 -0.085646816 0.061299965 -0.25956956 0.035608694 0.15400258 0.17064914 -0.27814588
-0.10445222 -0.0913699 -0.23731376 -0.36129576 0.016938467 -0.40613377 -0.17686442 -0.07315653
0.18584356 0.21753204 0.32195827 -0.19587432 0.2589568 -0.13298617 0.09609864 -0.034408312
-0.033801056 0.18017265 -0.105856024 0.16951047 -0.25941575 -0.26776472 0.06635223 -0.418594
-0.0778896 0.16489056 -0.27802318 -0.39072308 -0.037523534 0.16311528 -0.2490996 -0.41953894
-0.19441946 -0.40761513 0.20066743 0.098308615 -0.40541965 0.064790145 -0.20859163 -0.05713108
-0.57475454 -0.039002676 -0.050828774 0.12879616 -0.28791195 0.0921169 -0.23222032 -0.27306932
-0.4475294 -0.15702987 -0.11947698 -0.30849004 -0.34290153 0.12913126 0.06876624 -0.57828444
-0.0034689566 0.3857631 -0.47786862 -0.24320745 -0.00876452 -0.06942636 -0.15914667 0.23820628
-0.29420897 -0.24170274 0.21086448 -0.16133448 0.17620261 0.052062575 -0.26686788 -0.10409632
00000000: 3b68 69be 34b4 66be 26e9 263e 2929 2cbd
00000010: 2f6a 0dbe 9d30 abbe 34a0 97bc ab78 60be
00000020: 83a4 d0bd a074 c5be 3394 15be ce10 db3c
00000030: c31b 11be f0d7 fe3d 13b7 4cbe 5c70 533e
00000040: 91a3 913e 7fa1 58be 6f8b 2cbe 4939 a6bd
00000050: 4b76 f23d de7b 90be d69e ab3d af9b 65bd
00000060: 3b61 b1bd cd88 dfbd 5a5e aebe eb57 c5be
00000070: a0e9 0ebc 0f3a cc3d 00a3 39be dde0 0cbe
00000080: 8404 383e 7fac 8c3e 9122 3abd 8f92 8cbd
00000090: 77f2 59bd 8713 793d 9719 56be 0652 eb3c
000000a0: 7bef e43d afd1 91be 69f2 1e3c e987 4f3e
000000b0: 11b5 c33d 050f 32be 62d5 eabe 9f0d 0bbe
000000c0: 92df 333d a5aa 8e3e 1fb9 a5bd 920b 53bd
000000d0: e7c6 643b 26e4 ecbb 6963 b2be 1c68 67be
000000e0: 8ae9 a4bd 7c8c 6cbd 9433 f8bd 8ea7 8b3e
000000f0: b38b 8fbd c326 b4be 81b2 f4bc 3e20 e1be
00000100: 1c52 033e 481d 3dbd 1006 23be 3431 c2bd
00000110: a519 84bd 7ef1 463e dfbc 6fbe 14fc c33d
00000120: bd3c 343c a2c6 5ebe 7215 76be 8cad 093e
00000130: 519e 8b3d 6f83 c2bd 0326 a3be 6897 d0bd
00000140: 7dc7 0e3e 08a2 f93d 1127 e53c 4ea1 82be
00000150: bf98 cfbe fec3 2bbe 6666 47be 0d5d 39be
00000160: 339a 0abf c5c1 b6be fe51 c4bc c708 153e
00000170: 9910 0cbe 0d78 d23d 99a1 ea3d c439 e4bd
00000180: 6bb2 31bc fe74 b9be d541 f2bd cee5 9bbd
00000190: 7518 503d 0103 d0bd 31ab 5dbd ffd3 83be
000001a0: fc1b fdbc 6f05 af3a 8f81 85be 1267 12bc
000001b0: 13d6 5f3d b235 21be 193a 953d 5207 8c3b
000001c0: 3521 173e 0823 28be 76d6 0ebe 8926 9dbd
000001d0: 7d30 05bd 5aa1 1ebe 4faa fdbe 4902 6bbe
000001e0: 2adc 12be e121 c33c 1a6f a4bd 8401 b1be
000001f0: 9ded abbd e22b ecbe 5c86 9bbd c53e fbbd
00000200: 7365 34be b7c2 053e 2e71 8abc e53b c73d
00000210: a47e 91be 0197 34be eeda 873d 2c36 d3bd
00000220: d907 c1bd 5dd8 c1be 7c7b 633e 1ec8 11be
00000230: d7cc 5abe 162b e2bd d928 f0be b11e 3dbd
00000240: 94a3 80be a63b dc3c 57bd 3abe f4c7 a93d
00000250: caab f8bd 99e8 c1bd 5659 5dbe fac9 eebe
00000260: 6d13 16bf c03c b9be fee7 43be f35c 22bd
00000270: b98e 863e 2880 273e c4e6 c7bd f3b5 63be
00000280: 8b6d 22bf 6af9 f13d f7b5 d03d 6cc9 06be
00000290: c6b3 e33b ce1e c3be 7309 84be 9918 0abc
000002a0: 7872 883d aad3 873e 64ee 543c e341 86be
000002b0: b631 063d 0cba 81bd 4810 ffbc 4e96 94bd
000002c0: 9c0d 1fbe 9967 afbd ac15 7b3d 4de6 84be
000002d0: 6cda 113d dab2 1d3e a6be 2e3e 2369 8ebe
000002e0: 0ceb d5bd 2420 bbbd 6102 73be c2fb b8be
000002f0: 8ac2 8a3c c4f0 cfbe f21b 35be 17d3 95bd
00000300: c64d 3e3e b8c0 5e3e b7d7 a43e 4793 48be
00000310: fc95 843e 872d 08be 5dcf c43d bbef 0cbd
00000320: fa72 0abd 2e7f 383e 0bcb d8bd 2794 2d3e
00000330: 24d2 84be 7518 89be aee3 873d f451 d6be
00000340: 9584 9fbd 12d9 283e 0e59 8ebe db0c c8be
00000350: 47b2 19bd b107 273e f713 7fbe cfcd d6be
00000360: e515 47be eeb2 d0be c37b 4d3e 0756 c93d
00000370: 2a93 cfbe b2b0 843d 0b99 55be 4802 6abd
00000380: 1d23 13bf 45c1 1fbd d531 50bd 24e3 033e
00000390: 3269 93be c9a7 bc3d 2acb 6dbe becf 8bbe
000003a0: 9322 e5be 70cc 20be 59b0 f4bd 68f2 9dbe
000003b0: ca90 afbe fc3a 043e 50d5 8c3d 730a 14bf
000003c0: 6f57 63bb be82 c53e 32ab f4be 600b 79be
000003d0: 1099 0fbc 682f 8ebd 58f7 22be 59ec 733e
000003e0: 8fa2 96be ec80 77be dcec 573e de34 25be
000003f0: 756e 343e 913f 553d e8a2 88be 7430 d5bd

network_body.observation_encoder.processors.0.normalizer.running_mean f4 [9]
0.10994214 -0.028061628 4.421492 0.22634245 0.0024378223 0.34230322 0.014332118 3.7923708
3.3142097
00000000: 5829 e13d 80e1 e5bc dd7c 8d40 51c6 673e
00000010: dfc3 1f3b 5e42 af3e 43d1 6a3c 34b6 7240
00000020: 031c 5440
